2021-01-23 09:13:55.239 | INFO     | __main__:main:53 - The config file is {'model': Model(
  (cresnet): DataParallel(
    (module): ResNet(
      (Net): Sequential(
        (0): Conv1d(7, 32, kernel_size=(1,), stride=(1,), bias=False)
        (1): Conv1d(32, 32, kernel_size=(1,), stride=(1,))
        (2): BatchNorm1d(32, eps=1e-05, momentum=0.1, affine=True, track_running_stats=True)
        (3): ReLU(inplace=True)
        (4): Sequential(
          (0): Bottleneck(
            (conv1): Conv1d(32, 32, kernel_size=(1,), stride=(1,), bias=False)
            (bn1): BatchNorm1d(32, eps=1e-05, momentum=0.1, affine=True, track_running_stats=True)
            (conv2): Conv1d(32, 32, kernel_size=(11,), stride=(1,), padding=(5,))
            (bn2): BatchNorm1d(32, eps=1e-05, momentum=0.1, affine=True, track_running_stats=True)
            (conv3): Conv1d(32, 128, kernel_size=(1,), stride=(1,), bias=False)
            (bn3): BatchNorm1d(128, eps=1e-05, momentum=0.1, affine=True, track_running_stats=True)
            (relu): ReLU(inplace=True)
            (downsample): Sequential(
              (0): Conv1d(32, 128, kernel_size=(1,), stride=(1,), bias=False)
              (1): BatchNorm1d(128, eps=1e-05, momentum=0.1, affine=True, track_running_stats=True)
            )
          )
          (1): Bottleneck(
            (conv1): Conv1d(128, 32, kernel_size=(1,), stride=(1,), bias=False)
            (bn1): BatchNorm1d(32, eps=1e-05, momentum=0.1, affine=True, track_running_stats=True)
            (conv2): Conv1d(32, 32, kernel_size=(11,), stride=(1,), padding=(5,))
            (bn2): BatchNorm1d(32, eps=1e-05, momentum=0.1, affine=True, track_running_stats=True)
            (conv3): Conv1d(32, 128, kernel_size=(1,), stride=(1,), bias=False)
            (bn3): BatchNorm1d(128, eps=1e-05, momentum=0.1, affine=True, track_running_stats=True)
            (relu): ReLU(inplace=True)
          )
          (2): Bottleneck(
            (conv1): Conv1d(128, 32, kernel_size=(1,), stride=(1,), bias=False)
            (bn1): BatchNorm1d(32, eps=1e-05, momentum=0.1, affine=True, track_running_stats=True)
            (conv2): Conv1d(32, 32, kernel_size=(11,), stride=(1,), padding=(5,))
            (bn2): BatchNorm1d(32, eps=1e-05, momentum=0.1, affine=True, track_running_stats=True)
            (conv3): Conv1d(32, 128, kernel_size=(1,), stride=(1,), bias=False)
            (bn3): BatchNorm1d(128, eps=1e-05, momentum=0.1, affine=True, track_running_stats=True)
            (relu): ReLU(inplace=True)
          )
        )
        (5): Sequential(
          (0): Bottleneck(
            (conv1): Conv1d(128, 32, kernel_size=(1,), stride=(1,), bias=False)
            (bn1): BatchNorm1d(32, eps=1e-05, momentum=0.1, affine=True, track_running_stats=True)
            (conv2): Conv1d(32, 32, kernel_size=(11,), stride=(1,), padding=(30,), dilation=(6,))
            (bn2): BatchNorm1d(32, eps=1e-05, momentum=0.1, affine=True, track_running_stats=True)
            (conv3): Conv1d(32, 128, kernel_size=(1,), stride=(1,), bias=False)
            (bn3): BatchNorm1d(128, eps=1e-05, momentum=0.1, affine=True, track_running_stats=True)
            (relu): ReLU(inplace=True)
          )
          (1): Bottleneck(
            (conv1): Conv1d(128, 32, kernel_size=(1,), stride=(1,), bias=False)
            (bn1): BatchNorm1d(32, eps=1e-05, momentum=0.1, affine=True, track_running_stats=True)
            (conv2): Conv1d(32, 32, kernel_size=(11,), stride=(1,), padding=(30,), dilation=(6,))
            (bn2): BatchNorm1d(32, eps=1e-05, momentum=0.1, affine=True, track_running_stats=True)
            (conv3): Conv1d(32, 128, kernel_size=(1,), stride=(1,), bias=False)
            (bn3): BatchNorm1d(128, eps=1e-05, momentum=0.1, affine=True, track_running_stats=True)
            (relu): ReLU(inplace=True)
          )
          (2): Bottleneck(
            (conv1): Conv1d(128, 32, kernel_size=(1,), stride=(1,), bias=False)
            (bn1): BatchNorm1d(32, eps=1e-05, momentum=0.1, affine=True, track_running_stats=True)
            (conv2): Conv1d(32, 32, kernel_size=(11,), stride=(1,), padding=(30,), dilation=(6,))
            (bn2): BatchNorm1d(32, eps=1e-05, momentum=0.1, affine=True, track_running_stats=True)
            (conv3): Conv1d(32, 128, kernel_size=(1,), stride=(1,), bias=False)
            (bn3): BatchNorm1d(128, eps=1e-05, momentum=0.1, affine=True, track_running_stats=True)
            (relu): ReLU(inplace=True)
          )
        )
        (6): Sequential(
          (0): Bottleneck(
            (conv1): Conv1d(128, 32, kernel_size=(1,), stride=(1,), bias=False)
            (bn1): BatchNorm1d(32, eps=1e-05, momentum=0.1, affine=True, track_running_stats=True)
            (conv2): Conv1d(32, 32, kernel_size=(21,), stride=(1,), padding=(110,), dilation=(11,))
            (bn2): BatchNorm1d(32, eps=1e-05, momentum=0.1, affine=True, track_running_stats=True)
            (conv3): Conv1d(32, 128, kernel_size=(1,), stride=(1,), bias=False)
            (bn3): BatchNorm1d(128, eps=1e-05, momentum=0.1, affine=True, track_running_stats=True)
            (relu): ReLU(inplace=True)
          )
          (1): Bottleneck(
            (conv1): Conv1d(128, 32, kernel_size=(1,), stride=(1,), bias=False)
            (bn1): BatchNorm1d(32, eps=1e-05, momentum=0.1, affine=True, track_running_stats=True)
            (conv2): Conv1d(32, 32, kernel_size=(21,), stride=(1,), padding=(110,), dilation=(11,))
            (bn2): BatchNorm1d(32, eps=1e-05, momentum=0.1, affine=True, track_running_stats=True)
            (conv3): Conv1d(32, 128, kernel_size=(1,), stride=(1,), bias=False)
            (bn3): BatchNorm1d(128, eps=1e-05, momentum=0.1, affine=True, track_running_stats=True)
            (relu): ReLU(inplace=True)
          )
          (2): Bottleneck(
            (conv1): Conv1d(128, 32, kernel_size=(1,), stride=(1,), bias=False)
            (bn1): BatchNorm1d(32, eps=1e-05, momentum=0.1, affine=True, track_running_stats=True)
            (conv2): Conv1d(32, 32, kernel_size=(21,), stride=(1,), padding=(110,), dilation=(11,))
            (bn2): BatchNorm1d(32, eps=1e-05, momentum=0.1, affine=True, track_running_stats=True)
            (conv3): Conv1d(32, 128, kernel_size=(1,), stride=(1,), bias=False)
            (bn3): BatchNorm1d(128, eps=1e-05, momentum=0.1, affine=True, track_running_stats=True)
            (relu): ReLU(inplace=True)
          )
        )
        (7): Sequential(
          (0): Bottleneck(
            (conv1): Conv1d(128, 32, kernel_size=(1,), stride=(1,), bias=False)
            (bn1): BatchNorm1d(32, eps=1e-05, momentum=0.1, affine=True, track_running_stats=True)
            (conv2): Conv1d(32, 32, kernel_size=(81,), stride=(1,), padding=(840,), dilation=(21,))
            (bn2): BatchNorm1d(32, eps=1e-05, momentum=0.1, affine=True, track_running_stats=True)
            (conv3): Conv1d(32, 128, kernel_size=(1,), stride=(1,), bias=False)
            (bn3): BatchNorm1d(128, eps=1e-05, momentum=0.1, affine=True, track_running_stats=True)
            (relu): ReLU(inplace=True)
          )
          (1): Bottleneck(
            (conv1): Conv1d(128, 32, kernel_size=(1,), stride=(1,), bias=False)
            (bn1): BatchNorm1d(32, eps=1e-05, momentum=0.1, affine=True, track_running_stats=True)
            (conv2): Conv1d(32, 32, kernel_size=(81,), stride=(1,), padding=(840,), dilation=(21,))
            (bn2): BatchNorm1d(32, eps=1e-05, momentum=0.1, affine=True, track_running_stats=True)
            (conv3): Conv1d(32, 128, kernel_size=(1,), stride=(1,), bias=False)
            (bn3): BatchNorm1d(128, eps=1e-05, momentum=0.1, affine=True, track_running_stats=True)
            (relu): ReLU(inplace=True)
          )
          (2): Bottleneck(
            (conv1): Conv1d(128, 32, kernel_size=(1,), stride=(1,), bias=False)
            (bn1): BatchNorm1d(32, eps=1e-05, momentum=0.1, affine=True, track_running_stats=True)
            (conv2): Conv1d(32, 32, kernel_size=(81,), stride=(1,), padding=(840,), dilation=(21,))
            (bn2): BatchNorm1d(32, eps=1e-05, momentum=0.1, affine=True, track_running_stats=True)
            (conv3): Conv1d(32, 128, kernel_size=(1,), stride=(1,), bias=False)
            (bn3): BatchNorm1d(128, eps=1e-05, momentum=0.1, affine=True, track_running_stats=True)
            (relu): ReLU(inplace=True)
          )
        )
        (8): Sequential(
          (0): Bottleneck(
            (conv1): Conv1d(128, 32, kernel_size=(1,), stride=(1,), bias=False)
            (bn1): BatchNorm1d(32, eps=1e-05, momentum=0.1, affine=True, track_running_stats=True)
            (conv2): Conv1d(32, 32, kernel_size=(81,), stride=(1,), padding=(1640,), dilation=(41,))
            (bn2): BatchNorm1d(32, eps=1e-05, momentum=0.1, affine=True, track_running_stats=True)
            (conv3): Conv1d(32, 128, kernel_size=(1,), stride=(1,), bias=False)
            (bn3): BatchNorm1d(128, eps=1e-05, momentum=0.1, affine=True, track_running_stats=True)
            (relu): ReLU(inplace=True)
          )
          (1): Bottleneck(
            (conv1): Conv1d(128, 32, kernel_size=(1,), stride=(1,), bias=False)
            (bn1): BatchNorm1d(32, eps=1e-05, momentum=0.1, affine=True, track_running_stats=True)
            (conv2): Conv1d(32, 32, kernel_size=(81,), stride=(1,), padding=(1640,), dilation=(41,))
            (bn2): BatchNorm1d(32, eps=1e-05, momentum=0.1, affine=True, track_running_stats=True)
            (conv3): Conv1d(32, 128, kernel_size=(1,), stride=(1,), bias=False)
            (bn3): BatchNorm1d(128, eps=1e-05, momentum=0.1, affine=True, track_running_stats=True)
            (relu): ReLU(inplace=True)
          )
          (2): Bottleneck(
            (conv1): Conv1d(128, 32, kernel_size=(1,), stride=(1,), bias=False)
            (bn1): BatchNorm1d(32, eps=1e-05, momentum=0.1, affine=True, track_running_stats=True)
            (conv2): Conv1d(32, 32, kernel_size=(81,), stride=(1,), padding=(1640,), dilation=(41,))
            (bn2): BatchNorm1d(32, eps=1e-05, momentum=0.1, affine=True, track_running_stats=True)
            (conv3): Conv1d(32, 128, kernel_size=(1,), stride=(1,), bias=False)
            (bn3): BatchNorm1d(128, eps=1e-05, momentum=0.1, affine=True, track_running_stats=True)
            (relu): ReLU(inplace=True)
          )
        )
        (9): Dropout(p=0.5, inplace=False)
      )
    )
  )
  (sig): Sigmoid()
  (relu): ReLU()
  (soft): Softmax(dim=-1)
  (out_fc): Linear(in_features=128, out_features=1, bias=True)
  (ene_fc): Linear(in_features=128, out_features=1, bias=True)
  (tanh): Tanh()
), 'train_path': 'data/dev/train_old.txt', 'test_path': 'data/dev/dev.txt', 'epochs': 200, 'log_path': 'tasks/V0120_withlabel/', 'use_label': True, 'num_workers': 3, 'cut': True}
2021-01-23 09:13:58.420 | INFO     | __main__:main:61 - Train data size 38 Test data size 2
2021-01-23 09:14:06.470 | INFO     | __main__:main:70 - EPOCH 0 : ACC=0 RMSD=0.24312160909175873 loss=826.6915283203125
…
